lab2_RNN/model.ckpt (torch_old, 858473 bytes, 10 tensors)

lstm.weight_ih_l0 f4 [512, 28]
00000000: 1ae1 743e 0858 92bc 84af fcbe 7227 893d
00000010: 18c2 723e 0dc4 81bc c5b9 8cbe 7141 babe
00000020: a3fe ecbe ea53 abbe 1e15 2cbf 8917 21bf
00000030: b7ed f5be ce5b 08bf 6c55 3ebf 8711 81bf
00000040: e734 21bf 2b85 22bf e209 f9be 5929 e2bd
00000050: 5135 abbe 494b e8be 074f 79be 24bd 8bbe
00000060: 3fc3 aebd 89e7 84be e1c3 40bd 767e dc3d
00000070: 53af 42be 8d50 ec3e 570e ab3c 0147 83bf
00000080: 6146 edbf d266 b6bf 6fa1 0dbf 6d8c 75bf
00000090: a1cb a6bf 6760 5cbf a27c b73e bfaf 903f
000000a0: d7ea 013f 05a5 1ebf dd7c ffbf 58b5 06c0
000000b0: c976 2cbf e674 0e3f 1ee2 413e cbec 55bf
000000c0: 5b16 aebe 2dd4 d9bc 647a d43e e61f dd3e
000000d0: b2a6 073f 0749 383e 95e7 403d 6d9b b2be
000000e0: 2918 b8be fcb1 7fbf 6cbf 58bf 4663 0cc0
000000f0: 7956 2bbf 0002 a8bf ca88 00c0 3b9e b1bf
00000100: cb36 0cbf cfcd 6bbf 72fe 43bf 8070 7fbf
00000110: 4f7d 4fbf 154e 5abf 34e0 6a3d 1fd0 693e
00000120: 70d1 d33e 5674 913e a41f 08be c261 50be
00000130: a042 45be 306e 1ebd de3b 71bd 8721 90bd
00000140: e0dd 48bd ac3c 003e e5a3 6ebf 5432 b73d
00000150: 1460 abbe 3d8a e33c c5ab d6be cd6b b63f
00000160: 896e 8f3f b3f1 f93e d4ff 163f 7f11 6dbe
00000170: 1624 e3be c304 05bd cce2 f3be e22c 8fbf
00000180: c4a3 61bf 68d3 58bf eaec 9dbf f827 a0bf
00000190: ffd8 8abf 9b15 4ebf 3a45 8d3c c702 2a3f
000001a0: 2376 4c3f 5ada 153f c145 1d3e 6ce7 fcbe
000001b0: 803c f0be 9e87 4fbf 9bd0 1bbf acb8 e9be
000001c0: 47bd 093f 3309 f3bc 30f1 0dbf 0b66 c23e
000001d0: c9a6 473e 98f9 f63c abd0 91be a609 14be
000001e0: 475f 573d f7e3 1fbe 4957 74bf afbd b1bf
000001f0: 15e1 b0bf 570f ddbf 6ff2 c5bf 992f 93bf
00000200: 874f e8be 6166 8a3d ad95 f6be 4a98 06bf
00000210: c768 ea3c bdf5 b7bd 3aba f03d 9d28 ecbc
00000220: 7ede 1e3e 05c5 58be 5560 8e3d 53f6 5bbe
00000230: bbca 0ebf 0bec 513f d6be 8a3d 4615 27bf
00000240: 8b6c 4dbe ca58 29bf eb58 d4bf 773f 46bf
00000250: 2fbd bcbd cb0a bb3e 6f8e 163e 3803 01be
00000260: c40c 9cbe 72dc d7be 7e9a 7fbd faef d63d
00000270: 668f e3bb f47f 35be 89d2 d0be 6581 24be
00000280: f99e 5abd a10e ecbe f4ee bbbe 9ee2 c43d
00000290: a30e 37be 2523 413e 2bf2 babd fe31 133f
000002a0: b393 7dbe ebd3 9cbe 4886 99be 6d4a 9d3e
000002b0: fcc8 29be 57e6 14bf 1ab7 2f3e 6370 0abd
000002c0: 7583 053f 8cc1 9d3f b2a3 a43f 3a7d 9c3f
000002d0: 3467 9d3d 33d5 bd3d 009c 923d e0fb 6b3e
000002e0: 48a8 d13e fe75 3fbe 9943 e3be 3c6d 38bf
000002f0: 0966 5dbf a889 12bf ef91 a8be 6f14 2a3e
00000300: 65fb 233f 338b 503d a1a4 f4be 6442 7fbe
00000310: 5717 8fbd e905 9e3e 34f8 0e3e ece3 4d3f
00000320: def1 8d3e 9f6b bdbe eb66 66bf bdca 6ebf
00000330: 731f 7abf aac4 f7be 2f0d 03bf 4dd1 84b9
00000340: 5311 5d3f fdc9 aa3e ae18 4fbf 6d54 bebf
00000350: 0801 77bf 4bd0 87bf 2bc1 66bf 5b7a 06c0
00000360: 904e bcbf e14e 5ebf bb55 9bbf b504 53bf
00000370: eb96 91be 3967 33bd 2d88 343f 029b 9c3e
00000380: e069 72be 8f9b 513f 87da 2c3f 03a0 24bc
00000390: 0379 943f 8e74 00be b328 9ebc a40d d33d
000003a0: 2de0 8a3e 8d4e 953d 2971 22bf d1a8 56bf
000003b0: 2d94 95bf c12b 66be 7263 0dbf cccc 9ebf
000003c0: eea6 e4bf 0cca 5ebf 78a6 fdbe 4784 d0bf
000003d0: d8cb 62bf 8736 7dbd 502d 96be d461 6c3d
000003e0: 9fd3 4cbe d077 0f3f 1bcd 1b3f e9e3 61be
000003f0: fd85 513e 5f80 36bf c670 7fbd a742 bf3e
0.23913994 -0.017864242 -0.49352658 0.06696977 0.23706853 -0.015840555 -0.2748548 -0.36378053
-0.46288022 -0.3346246 -0.6721972 -0.62926537 -0.48032925 -0.5326508 -0.74349093 -1.0083474
-0.6297135 -0.6348445 -0.48640352 -0.11043043 -0.33439115 -0.45369938 -0.24346553 -0.2729274
-0.08533334 -0.25957897 -0.047061805 0.10766308 -0.19012193 0.46155205 0.020880861 -1.0256044
-1.8537103 -1.4250128 -0.55324453 -0.959174 -1.3030893 -0.860846 0.35837275 1.1303633
0.5074896 -0.6197055 -1.995998 -2.1048183 -0.6736875 0.5564712 0.18933913 -0.8356444
-0.3400143 -0.026590431 0.41499627 0.431884 0.5298873 0.17996608 0.047095854 -0.34884205
-0.35955933 -0.9988096 -0.84667087 -2.1935592 -0.6692882 -1.312561 -2.008349 -1.3876413
-0.5477111 -0.92110914 -0.7656013 -0.99781036 -0.8105058 -0.85275394 0.057342723 0.22833298
0.41370726 0.2840907 -0.1329332 -0.20349792 -0.19263697 -0.0386793 -0.058894984 -0.07037645
-0.04903972 0.12523144 -0.93218833 0.08945146 -0.3347174 0.027775878 -0.41927925 1.4251648
1.1205608 0.48817214 0.5898411 -0.23151205 -0.4436347 -0.032475244 -0.4763397 -1.1185572
-0.8814051 -0.8469758 -1.2337925 -1.2512197 -1.0847472 -0.8050172 0.017244924 0.6641049
0.7986776 0.58536303 0.1535864 -0.4939531 -0.46921158 -0.8106631 -0.6086518 -0.45648706
0.5380444 -0.029667472 -0.5544615 0.37968478 0.19497217 0.030148312 -0.28479514 -0.14456806
0.052581098 -0.15614305 -0.95445687 -1.3886012 -1.381869 -1.7270306 -1.546461 -1.1498901
-0.45373175 0.067578085 -0.4816107 -0.52576125 0.028614415 -0.08982418 0.1175427 -0.02882796
0.15514562 -0.21168907 0.069519676 -0.21480684 -0.5577809 0.820008 0.0677468 -0.65266836
-0.20060937 -0.66151106 -1.6589636 -0.7744059 -0.092157714 0.36531672 0.14702772 -0.12598884
-0.3047849 -0.42160374 -0.062403195 0.10494991 -0.0069445847 -0.17724591 -0.40785626 -0.16064985
-0.053374264 -0.4610491 -0.36705744 0.09613536 -0.17876677 0.18861063 -0.09128221 0.5749816
-0.24763374 -0.3063043 -0.2998526 0.30720845 -0.16580576 -0.5816397 0.17159691 -0.033798587
0.5215371 1.2324691 1.2862456 1.2225716 0.076857 0.0926918 0.07158661 0.23045301
0.409487 -0.18697354 -0.4438751 -0.7204168 -0.8648382 -0.57241297 -0.32923838 0.16609357
0.6405547 0.050914 -0.47781852 -0.2492767 -0.069868736 0.30863884 0.1396187 0.80425906
0.27723593 -0.3699617 -0.9000079 -0.93278104 -0.9770424 -0.4839223 -0.5119199 -0.00025332943
0.8635456 0.3335723 -0.80897033 -1.4869515 -0.9648595 -1.0610441 -0.901385 -2.101218
-1.4711475 -0.8683911 -1.2135538 -0.8242906 -0.28435454 -0.043799613 0.7052029 0.30587012
-0.236732 0.8187799 0.67520946 -0.010047915 1.159943 -0.12544462 -0.019306516 0.10305336
0.27124158 0.07290373 -0.6345392 -0.83851343 -1.1685845 -0.22477628 -0.55229867 -1.2406249
-1.7863443 -0.8702705 -0.49541068 -1.6290368 -0.8859229 -0.06181958 -0.29331446 0.057710484
-0.20002602 0.56042194 0.6085984 -0.22059597 0.20461269 -0.7128963 -0.06236341 0.3735554

lstm.weight_hh_l0 f4 [512, 128]
00000000: 406c 313e ef94 52be 40b2 68be ec1b ac3e
00000010: c75f da3e 7524 96bc 5e9e c8bc 0cfd 013e
00000020: b1c8 033e 59c5 75be 91d3 5dbd 672a 79be
00000030: e46f 3dbe 62b0 c3be 99df f0be 4c69 883e
00000040: c529 2e3e 08eb e33d 94ac 50be 3d8d 633d
00000050: 2829 003d c672 81bf 95a0 803e ef08 a83e
00000060: 1c8e 92bd c61e 90be 0156 b13e 2967 0d3c
00000070: c246 06be ded9 1bbd ec4c 4abe 8b16 b63e
00000080: e23c 623e 7730 453e 31eb fcbe ca85 a2bc
00000090: 23cc 623e ce4a 823c 20a3 793e 4bdf 883e
000000a0: c232 71bd 02a7 9c3d 8277 6fbe 2438 82be
000000b0: 20ee e43e 6f1e 52be 8156 3ebe e424 5e3e
000000c0: 652f a5bd b84f 42be aec6 8d3e cdf6 d53e
000000d0: e64b a23e 5a83 413d 97c8 85be 79fb 50be
000000e0: 765d 793e f164 553e 82ba 55be 9efa d93e
000000f0: 37c1 cbbd 7959 17bb 920d e4be c7dd 4abe
00000100: 5dfa 49be a0a1 f8be c02a 183d 3faa b5be
00000110: 2bfd bdbe 13ac 06be b6e8 5cbe 8dbc 253f
00000120: 0bca 4a3f d0ee f43e 8683 013f 9c24 013e
00000130: 29a7 d5be e1c2 a6bd 8e79 24be ec79 30be
00000140: 7c15 d3be 476e 9c3c 8d7a 1bbe a9af 933a
00000150: c45d 893d 5d65 6cbd 3b8d 0ebf ea1c 87bd
00000160: 59e0 3b3d c377 11be 04df d83e 924e bebc
00000170: 04d5 ae3c 0159 04be 3ef2 a23e 3b0e a6be
00000180: daa6 073d 59cc b2bd 1d9d 673e 6c85 7b3d
00000190: f880 58be ef3b 213e 067f 2cbe 46c1 c73e
000001a0: b2b3 82be 9398 1bbd 0e73 dbbe a0e8 3abd
000001b0: 9b53 e63e 63b0 583e 1a51 ca3e f954 063f
000001c0: 22c8 2d3e db26 87be 5895 87bc 0e73 88bd
000001d0: 7f6b e83d 8756 103f 64d4 ccbd eae9 883e
000001e0: d422 2bbe 082c 473f edf1 62be 856d 94bd
000001f0: 604b 2b3e 987d 43bd 8a7d d23e 693f d6be
00000200: 811f 19bb e7a7 b1be c0df 1b3f 56b0 4a3e
00000210: da2b 1d3f 551f 893e a164 373f fd41 97be
00000220: dcc6 c33e ce8b 763f 59fe b73d 568f 1a3c
00000230: b399 7bbe aa3f 1bbf 83ea ae3d 2343 a1bd
00000240: 83d3 333f 149b f7be 6975 3fbf 2157 bcbe
00000250: d446 5cbf c29f dfbd 7659 e1be 03d3 26bd
00000260: 37b3 ebbe bbc2 70be e67a 813a 0a3f 273f
00000270: e5bf 273e 69b3 d83e 1986 543f fc71 af3e
00000280: ca46 1a3f f49a 0d3e 9525 693f 3b1d 853e
00000290: cc81 e5be eaad 573e 9da3 3abf 3ab3 5e3e
000002a0: 76da 94be 2c5d 2c3f e865 ed3e 5ca6 15bf
000002b0: 8ccc 3fbf 89fe a5bd 5e73 b03f 47d3 c2bd
000002c0: 5db7 30bf 8ad5 b63e 7aea e9be a417 833f
000002d0: 4042 28bd 50df 2a3f abe9 033d 339d e63e
000002e0: 33f4 053f 35e9 07bf 335b 89bf 293b 373f
000002f0: a592 183f 9c43 013e dc0a a9bf 277c 7d3e
00000300: ac7e 8a3e 109b 15bf b8ce 08bd 8964 5fbe
00000310: f81c 9a3e 096a e33d c6d0 99bd e03e fa3e
00000320: 3c5e 87be 585a 83be a043 023f 0cfa 26bf
00000330: a632 98be 01f9 fabe d443 dd3d dc2e a93e
00000340: a4b8 38bf 9e67 4dbf 0c66 133f 923f 0b3f
00000350: 990c 5d3e abbd a03e b3f2 a03c 56f8 b23f
00000360: 9722 a2bd 8b74 f6be 4143 ff3e 542d f7bd
00000370: e232 43bf 4064 4bbe 65af 293e 0ca8 433e
00000380: 9902 cd3c 63f2 303f cd1d 09be ff58 143f
00000390: 8b47 a43e 71cc 893e a4ad d23d 4cf9 00bf
000003a0: dbc3 b9bd 8eb1 d93e 7124 afbe 504d 0e3f
000003b0: 5884 db3d 5260 3f3d c961 68bf a45a f1bd
000003c0: e8db 87bf b655 fbbe edf1 afbe 3256 adbf
000003d0: ac8d 6dbe 7d08 c9be 26bd 4fbd eb11 e3be
000003e0: 0a07 1fbf c4ff 883e 3221 e2bd 16cb 563e
000003f0: 387d 2e3f 9ae1 8dbf 5cd6 e13e de68 e9be
0.1732645 -0.20564626 -0.22724247 0.33615053 0.42651197 -0.018327931 -0.024489578 0.12694186
0.12869526 -0.24001063 -0.054156844 -0.24332581 -0.18499714 -0.38220507 -0.4704559 0.26642835
0.17008121 0.11128813 -0.20378333 0.055554617 0.03128925 -1.0113151 0.25122514 0.32819316
-0.071560115 -0.28148478 0.34635928 0.008630552 -0.1311293 -0.03804957 -0.19755906 0.35564074
0.22093537 0.19256769 -0.49398187 -0.019839186 0.22148184 0.01590481 0.24378633 0.2673286
-0.058886297 0.07649042 -0.23385432 -0.25433457 0.44712925 -0.20519422 -0.18587686 0.2169376
-0.080656804 -0.18975723 0.27690643 0.41789857 0.3169853 0.047244407 -0.261296 -0.20408429
0.24352059 0.20839287 -0.20871928 0.42574018 -0.09948962 -0.0023094101 -0.44541603 -0.19811164
-0.19724412 -0.4856081 0.037150145 -0.3548145 -0.37107214 -0.13151579 -0.21573147 0.6474083
0.79214543 0.4783845 0.50591314 0.12611622 -0.41729096 -0.08142639 -0.16061994 -0.1723401
-0.4122733 0.019095553 -0.15183468 0.0011267561 0.067073375 -0.057713855 -0.5568425 -0.06597312
0.04586825 -0.14205842 0.42357647 -0.023230825 0.021341808 -0.12924577 0.3182544 -0.32432732
0.033118106 -0.087303825 0.22618528 0.061406538 -0.21142948 0.15745519 -0.1684533 0.39014643
-0.25527722 -0.037987303 -0.42861217 -0.045632005 0.4498566 0.21161036 0.39515 0.5247341
0.16970876 -0.26396832 -0.016550705 -0.0666257 0.11348628 0.5638203 -0.10001448 0.26740962
-0.16712505 0.7780156 -0.221626 -0.07247452 0.16727972 -0.047727197 0.41111404 -0.41845253
-0.0023364725 -0.34698412 0.6088829 0.1979383 0.6139504 0.26781717 0.7163792 -0.29542533
0.38237655 0.96307075 0.0898406 0.009433588 -0.2457035 -0.6064402 0.08540823 -0.078741334
0.70244616 -0.48360503 -0.7478853 -0.36785224 -0.86045575 -0.10919143 -0.44013566 -0.04072858
-0.46035168 -0.23511784 0.0009878546 0.65330565 0.16381796 0.4232438 0.83017117 0.3426665
0.60264266 0.13828641 0.9107297 0.25998864 -0.4482559 0.21062437 -0.72905904 0.21748057
-0.29072922 0.6732967 0.4636681 -0.5845697 -0.7492149 -0.08105189 1.3785207 -0.09512954
-0.6902979 0.35709792 -0.45686704 1.024159 -0.041078806 0.66747 0.032205265 0.45041808
0.52325743 -0.5309022 -1.0730957 0.71574646 0.5959876 0.12623447 -1.3206439 0.24754392
0.27049768 -0.5843973 -0.033400267 -0.21815695 0.30100226 0.11104209 -0.075105235 0.48876095
-0.26439083 -0.25654864 0.5088444 -0.6522529 -0.29726142 -0.490181 0.10803953 0.33043563
-0.7215674 -0.8023623 0.57577586 0.54393876 0.21586837 0.31394705 0.019646978 1.3982036
-0.07916754 -0.4813579 0.49855998 -0.120691925 -0.76249516 -0.19862461 0.16570814 0.19107074
0.025025653 0.6911985 -0.13390274 0.579483 0.32085833 0.2691379 0.102870256 -0.50380397
-0.090705596 0.42518276 -0.3420749 0.5558672 0.10718602 0.046722718 -0.9077421 -0.117848665
-1.0613985 -0.4908883 -0.34364262 -1.354193 -0.23198575 -0.3926429 -0.050717495 -0.44349608
-0.62120116 0.26757634 -0.11041488 0.20975909 0.6815982 -1.1084473 0.44108856 -0.4558782

lstm.bias_ih_l0 f4 [512]
00000000: 6620 54bf 5179 613c ac0a 7dbd fe6b 85bf
00000010: ae97 a4bd c26f 4cbf 7e63 92bf f9f3 7abf
00000020: ae8c ddbe e025 76bf 9711 91bf c59e 0ebf
00000030: 1ff6 30bf 16f1 14bf 3e66 e8bd a9de 80be
00000040: cb5f 55bf 80a3 dabe f5ce fdbe ca28 b5bf
00000050: 2f9b 5dbf 7f73 e4bc 71cf 2ebf 70cb 84bf
00000060: 45d1 1ebf bfa6 8abf 5b44 08bf 5db0 72bf
00000070: 0b1a 4abf b611 89be 3cf8 953e fa1d 65be
00000080: 75b3 6cbf 4be8 2ebf 4f9e 0ebf b8a2 a4be
00000090: 44da 33bf c44e 86be 9954 53bf 0d5a 1abf
000000a0: 854e 20be ff6a 7bbf 0dfb 69bf ee8d 91be
000000b0: 07ab 30bf dc3b 0dbf 4c33 21bf daf7 70bf
000000c0: effb 8fbf 0b08 48bf 8b47 8abf e2b6 14bf
000000d0: 7c22 49bf 5136 68bf c6cf f8be 3bc5 85bf
000000e0: 7506 78bf 3adc e3bd 16ec 91bd 47ee 5fbf
000000f0: 99da 61bf 6fd2 1cbf e571 46bf c893 4ebe
00000100: 7ca2 9abe 9760 febe 36dc 73bf e532 13be
00000110: 51a9 97be 17e8 21bf db09 c0be 5a99 9dbe
00000120: 3229 08bf 161a 46bf 1827 e4be 2722 73bf
00000130: ee05 a3be b363 17bf ee18 36be 6293 11bf
00000140: 9ec7 fbbe 1662 20bf f6f2 f0be fb95 24bf
00000150: d5c6 7ebf 1d1a 2ebf 5ce2 1fbf ebd5 30be
00000160: e5cd 2dbf 8233 d4be 7fa8 c6be c4d6 38bf
00000170: 9ad9 aabf d10d 26bf 3213 6c3e e9fe 8abf
00000180: 4b9a 8ebd 7776 89bf 6aef 5ebf a042 a6be
00000190: 9379 87bf ef49 cabe 3ee6 983b e537 42be
000001a0: 93ed 11bf 16b4 d1bc 4d04 72be c766 02bf
000001b0: 4c4f 1fbf 2b10 13bf c163 17bf 8549 f7be
000001c0: 0a14 29bf 7573 2fbf e5cc 933c 49fe 34bf
000001d0: 8dbf 52bf d663 75bf 2696 31bf df16 0bbf
000001e0: f116 f7be 7871 f7be 7dbd 4dbf 1aaf 84be
000001f0: 848f 87bc dfc9 08bf ff16 c33e dbf0 09bf
00000200: 2ccd efbe 4e33 133f b4da a43d 43bc 64bf
00000210: 7952 773e 0df8 49bf bde8 033f ee25 4cbe
00000220: db15 23bf 5403 cdbe f68c 84bf a626 37be
00000230: 6af6 f3be 25e6 b0be 9475 d33d 1b09 28be
00000240: 72b8 04bf a41d 3abe 47c0 873e 5200 c8be
00000250: 916b 7cbe 8c6f 9d3e fb43 2dbf 8e8c eabd
00000260: 0bac 5ebf 9308 efbe a99a 93be 2ab2 02bf
00000270: becf 12bf 6868 afbe 7cd8 45bf 807e 8bbf
00000280: ecbe 0bbf b615 543e 2427 5abf dba3 683f
00000290: 62aa 7ebe 9a37 a9be db90 d4be d279 7c3d
000002a0: 4f32 0ebe 33c2 2fbf d71e 37be 3349 573c
000002b0: f6cb 5bbf 1379 603e 8fb4 36bf 7280 bcbe
000002c0: b583 75be 591a 38be c7fd 5abf 7d1f 44bf
000002d0: 3684 b5be 192c 29bf cfbb e2be 9269 67be
000002e0: 3feb ccbf 06f6 c43e 978d 0ebf d125 b0bd
000002f0: 5c25 b83e cb3d 8bbf 554c 89bf f038 0d3e
00000300: 3ad7 2bbf 5d1b ec3d 30e7 cdbe d619 1cbf
00000310: 1a2e 96be 3d36 1ebf 159e d53d 18ee 8b3c
00000320: bbc8 f5bc db35 52bf 6f87 49be df34 edbe
00000330: 8467 3d3e 72bf 7f3e 9069 453e aa0f b9be
00000340: 68ca 86bf 834c edbe 8c1f 98be 82b9 13bf
00000350: 291d 1f3e cbe4 3cbd 7e45 2c3f 0e98 39bf
00000360: 6b8f 30bf 50da d5be 5a02 113e 20ad 26bd
00000370: 4299 d9be 5c2c b8be cceb f63d 1574 42bf
00000380: b814 af3e 7ad2 33bf d6be a8be 2034 08bf
00000390: 2e61 45bf 4511 fd3c a903 8e3b c5da 9fbd
000003a0: dfed e3be 09d1 92bd 9d21 77be 3e70 35bf
000003b0: 6c85 d53d 2656 61bf d4d7 e0be b0d8 163f
000003c0: 39b3 d8be 11d9 afbd 9cc8 3dbf cb1b 04bf
000003d0: 9e75 edbe 15a2 92bf bfb5 12bf ec52 a1be
000003e0: 998d 1dbf 0d60 6abd 0bf2 983e 987c 5cbe
000003f0: 9401 83bf d762 17bf c455 e6be a98c 1fbe
-0.82861936 0.013761834 -0.061777756 -1.0423582 -0.08036743 -0.7985803 -1.1436613 -0.9802852
-0.43271393 -0.9615154 -1.1333493 -0.55711013 -0.6912555 -0.5818037 -0.11347626 -0.25169876
-0.83349293 -0.42702866 -0.49571958 -1.4153073 -0.86564916 -0.027887104 -0.6828528 -1.0374584
-0.6203807 -1.0832137 -0.532293 -0.9480036 -0.7894599 -0.26771325 0.2929095 -0.22374716
-0.9246133 -0.683232 -0.5571031 -0.32155395 -0.7025492 -0.26231968 -0.8255096 -0.60293657
-0.15654953 -0.9821014 -0.913987 -0.28428596 -0.69010967 -0.55169463 -0.629689 -0.9412819
-1.1248759 -0.7813727 -1.0803083 -0.5809156 -0.78568244 -0.9070788 -0.4859602 -1.0450815
-0.9688485 -0.11125989 -0.07125108 -0.8747296 -0.8822418 -0.61258596 -0.7751754 -0.20173562
-0.3020209 -0.49683067 -0.9525789 -0.14374883 -0.29621366 -0.63244766 -0.3750752 -0.3078106
-0.5318786 -0.77383554 -0.44561076 -0.9497399 -0.31840461 -0.59136504 -0.17782947 -0.56865513
-0.49175733 -0.6264967 -0.47060364 -0.6429135 -0.99522144 -0.68008596 -0.6245477 -0.17269103
-0.67892295 -0.41445547 -0.38800427 -0.72202706 -1.3347657 -0.6486483 0.23054197 -1.0859042
-0.06963023 -1.0739278 -0.87084067 -0.32472706 -1.0583977 -0.39509532 0.004666119 -0.18966635
-0.57003134 -0.025598567 -0.23634453 -0.50938076 -0.6223037 -0.57446545 -0.5913659 -0.48298278
-0.660462 -0.6853555 0.018042037 -0.7070051 -0.82323533 -0.9585546 -0.69369733 -0.54331774
-0.4825969 -0.48328757 -0.8036726 -0.25914842 -0.016547926 -0.5343303 0.38103482 -0.5388314
-0.4683622 0.5750016 0.08049527 -0.89349765 0.24152555 -0.7889412 0.51527005 -0.19936344
-0.63705224 -0.40041602 -1.0355518 -0.17885837 -0.47648937 -0.34550586 0.103251606 -0.16409723
-0.5184394 -0.1817537 0.26513883 -0.39062744 -0.24650408 0.30749166 -0.67681855 -0.1145259
-0.86981267 -0.4668623 -0.28828934 -0.51053107 -0.5734824 -0.34259343 -0.77283454 -1.089798
-0.545882 0.20711407 -0.85215974 0.90875024 -0.24869683 -0.33050233 -0.41516766 0.061639614
-0.13886379 -0.686557 -0.17882858 0.013140011 -0.85858095 0.21921186 -0.7136926 -0.36816746
-0.23976023 -0.17978801 -0.85543483 -0.7661055 -0.3545243 -0.6608291 -0.44283912 -0.22598866
-1.6009291 0.3846895 -0.556848 -0.08600963 0.35966003 -1.0878233 -1.072642 0.13791251
-0.67125285 0.11528657 -0.40215445 -0.6097692 -0.29332048 -0.6180151 0.104305424 0.017081305
-0.030002942 -0.82113427 -0.1968057 -0.463294 0.1849652 0.24975374 0.1927855 -0.36144763
-1.053052 -0.46347436 -0.29711568 -0.5770494 0.15538467 -0.04611663 0.67293537 -0.7249764
-0.6896884 -0.41768122 0.14161053 -0.04069245 -0.4249974 -0.35971344 0.120566934 -0.7595838
0.34195495 -0.70243037 -0.32958096 -0.53204536 -0.7710141 0.030892024 0.0043339324 -0.07805399
-0.4451742 -0.071687765 -0.24133916 -0.70874393 0.10425839 -0.8802208 -0.43914664 0.5892439
-0.42324236 -0.08586324 -0.7413423 -0.5160491 -0.46378797 -1.1455714 -0.5730857 -0.31508577
-0.61544186 -0.057220507 0.29872164 -0.21531904 -1.0234857 -0.5913519 -0.4498731 -0.15581001

lstm.bias_hh_l0 f4 [512]
00000000: 6177 73bf 739a ef3c 4068 46bd 8ec8 8cbf
00000010: fc8e 48bd da63 4ebf 046c 87bf 479f 57bf
00000020: e10a 97be e57e 84bf d622 97bf b7e0 08bf
00000030: d8df 32bf 6b42 0dbf dcf9 bebd 08d5 8ebe
00000040: 755e 67bf a05f bdbe 5695 0bbf 0506 a8bf
00000050: 969c 5ebf 2e7b 22be dd68 37bf 47e4 79bf
00000060: a4a0 30bf 270c 80bf c890 fbbe 08d5 73bf
00000070: 142e 45bf c1ff a0be 7148 133e 5375 42be
00000080: 41f0 5cbf 8f25 31bf e080 16bf 4655 94be
00000090: a8f9 3bbf 5639 9bbe 550a 5cbf c3f0 17bf
000000a0: 4420 69be c64b 69bf a732 5bbf 8cd5 84be
000000b0: c5bb 0dbf b92c 07bf d57f 24bf 3417 69bf
000000c0: 0027 99bf aedb 36bf 638d 68bf 5bbc 13bf
000000d0: a576 3dbf 3a28 3fbf 6385 d3be 860b 86bf
000000e0: 7d8f 83bf 089c 0dbe 77c5 bdbd 77af 46bf
000000f0: ca3f 6abf 7d01 3ebf 7535 46bf 679e 5cbe
00000100: 6ba5 a7be 3d4b bfbe ae53 80bf 029f 93bd
00000110: ec6f 92be c984 41bf 0a86 b4be 9641 b5be
00000120: 5f77 fbbe d98a 42bf 1e6d d9be 98fa 57bf
00000130: b8e3 81be bba0 13bf 3b59 1fbe a893 11bf
00000140: f536 08bf 6152 2dbf 7a67 01bf 3b62 1abf
00000150: c6ae 5dbf 8310 18bf 40c6 27bf d443 62be
00000160: 26b2 34bf c0ad e6be 4b10 babe dfe3 2cbf
00000170: a8e0 a8bf 28a4 1ebf 315a 213e be38 95bf
00000180: 5782 7bbb 2374 94bf 58f7 58bf 28ea afbe
00000190: 6534 8fbf 5bcf d3be 28d5 2f3d 8213 09be
000001a0: 285d f8be d7ee 27be 876e 74be 7d88 f8be
000001b0: fb79 20bf 71bf 13bf 3afd 17bf ada4 a2be
000001c0: 3154 30bf 83fc 2bbf 84af e23b 3f00 5bbf
000001d0: afcb 39bf a926 82bf a6f3 43bf d1bc 0dbf
000001e0: 1afa d7be d0b5 e6be 8a53 3cbf 9111 99be
000001f0: 7021 65bd bb67 11bf dca0 b23e bbdb 05bf
00000200: 9a87 dbbe bca0 083f 3908 0e3e 7876 54bf
00000210: c2c6 ac3e 07e4 30bf c03a 173f d8bd 23be
00000220: d037 1cbf f42c 85be 1e83 90bf 786e 47bd
00000230: a2dc d1be f426 92be 3ba0 1b3e f204 dcbd
00000240: 9edc 06bf 5acb 83be be4a b93e fa24 d9be
00000250: 6661 81be d3ee 7f3e 83b8 15bf fbf0 2bbe
00000260: 62e0 48bf d30b cfbe bf7a cbbe 91a3 f7be
00000270: 1cd7 21bf 9df4 a8be 5076 61bf 7664 8bbf
00000280: 0a9e 25bf 7f20 a93e f70f 52bf ca67 6d3f
00000290: 5d81 a3be abc3 a4be d282 f9be f802 c33d
000002a0: 62b1 a3bd b736 1dbf 95fc 86be 38c2 37bd
000002b0: 8b0d 5cbf fb14 a83e 1fe0 40bf c3d8 9fbe
000002c0: 1d49 a9be 52eb adbd a8cb 76bf d6b9 31bf
000002d0: cfcc cebe 3c4d 25bf 61b9 13bf b660 aabe
000002e0: 440e c8bf ad0e bf3e 571f 19bf 96fb 10be
000002f0: d0f5 f93e beb4 99bf f53a 82bf 748f 423e
00000300: 6a9a 3cbf d443 27bd 3587 e2be b99c 16bf
00000310: 0aba 92be 4ad6 f8be 7af8 f6bb 1fae 173e
00000320: 8106 47bd ffa6 45bf 5a45 4abe fe4b e6be
00000330: 3447 393e a354 c73e f08b 663e 45d1 bbbe
00000340: 3195 99bf 1171 ccbe 3dbc 81be 2729 edbe
00000350: 7181 803e 0bbe a1bd c616 2b3f 7ff7 36bf
00000360: e6ff 33bf 6f92 dabe 39a5 6b3e addd 10be
00000370: f538 debe 2143 bcbe 2ddb c43d 688f 45bf
00000380: 4c54 953e 460d 5ebf d996 a1be e043 fbbe
00000390: 7844 34bf b105 863d 64ea d93d 829d 87bd
000003a0: f8ed ccbe 39e8 2ebc 1177 81be 954f 4fbf
000003b0: 4eda 4e3d 20a1 3ebf 18fd 14bf 4b48 fe3e
000003c0: c07c febe 3e5d ffbd 3708 3ebf 49c2 dfbe
000003d0: 9f25 0abf 1465 9dbf 9a6f ebbe d8b3 b0be
000003e0: 54c2 04bf 9881 aa3c 84e4 c43e 300d 4bbe
000003f0: ee25 83bf de90 14bf 6a95 bdbe b35c 82be
-0.9510403 0.029248452 -0.048439264 -1.0998704 -0.048964486 -0.8062111 -1.0579839 -0.8422741
-0.29500487 -1.0351225 -1.1807506 -0.5346789 -0.6987281 -0.5517947 -0.09325001 -0.27896905
-0.90378505 -0.3698702 -0.54524744 -1.3126837 -0.8695768 -0.15867302 -0.71644384 -0.9761395
-0.6899512 -1.0003709 -0.49133897 -0.95246935 -0.77023435 -0.31445125 0.14383103 -0.18990068
-0.863041 -0.69197935 -0.587904 -0.28971308 -0.7342782 -0.3031718 -0.85953265 -0.5935175
-0.22766215 -0.91131246 -0.85624164 -0.25944173 -0.5536464 -0.52802616 -0.64257556 -0.9105103
-1.1965027 -0.71428955 -0.9084074 -0.5770928 -0.7400916 -0.74670756 -0.41312703 -1.0472267
-1.0278164 -0.13829052 -0.09266179 -0.7761149 -0.91503584 -0.7422102 -0.7742532 -0.215448
-0.3274339 -0.3736209 -1.0025537 -0.07208063 -0.28601015 -0.7559324 -0.35258514 -0.354016
-0.4911451 -0.75993115 -0.42466062 -0.8436675 -0.25369048 -0.5766713 -0.15561382 -0.5686593
-0.5320886 -0.67703825 -0.5054852 -0.6030614 -0.8659481 -0.59400195 -0.6553688 -0.22096187
-0.7058433 -0.45054436 -0.36340556 -0.67535204 -1.319356 -0.6196923 0.15757062 -1.1657941
-0.003837725 -1.1597942 -0.84752417 -0.34358335 -1.1187865 -0.41369137 0.04292789 -0.13386348
-0.48508573 -0.16399704 -0.23870288 -0.48541632 -0.6268613 -0.5771399 -0.5937077 -0.31766263
-0.68878466 -0.6718218 0.0069178957 -0.8554725 -0.7257642 -1.0168048 -0.76543653 -0.55366236
-0.42183 -0.45060587 -0.7356497 -0.29896215 -0.05594009 -0.56798905 0.3488835 -0.5228841
-0.42876893 0.5337026 0.13870324 -0.8299327 0.3374539 -0.6909794 0.5907402 -0.15990388
-0.61022663 -0.2601086 -1.1290014 -0.048689336 -0.40988642 -0.28545344 0.15197842 -0.10743131
-0.52680385 -0.25741082 0.36189836 -0.42411023 -0.25269622 0.24993448 -0.5848467 -0.16791146
-0.7846738 -0.4043871 -0.39742085 -0.4836698 -0.63218856 -0.32999125 -0.88071156 -1.0890033
-0.64694273 0.33032605 -0.8205561 0.92736495 -0.31934634 -0.32180533 -0.4873262 0.095220506
-0.079928175 -0.61411613 -0.2636458 -0.044862956 -0.85958165 0.32828507 -0.7534198 -0.31220064
-0.33063594 -0.084921494 -0.96404505 -0.6942419 -0.40390632 -0.64570975 -0.5770474 -0.3327691
-1.5629354 0.37315884 -0.59813446 -0.14158472 0.48820353 -1.2008283 -1.0174242 0.19000036
-0.7367312 -0.04083617 -0.4424378 -0.5883289 -0.28657562 -0.4860099 -0.007536945 0.14812516
-0.048590187 -0.7720794 -0.19753018 -0.44979852 0.18093568 0.3893176 0.2251432 -0.36683097
-1.1998655 -0.39930013 -0.25338927 -0.4632046 0.25098756 -0.07897576 0.66831625 -0.714714
-0.70312345 -0.42689845 0.23012246 -0.14147063 -0.4340283 -0.36769965 0.09612117 -0.77171946
0.29165876 -0.86739004 -0.315604 -0.49075222 -0.70416975 0.06544054 0.106404096 -0.06621839
-0.40025306 -0.010675483 -0.25286153 -0.8098081 0.05050116 -0.7446461 -0.5819869 0.4966453
-0.49704552 -0.124689564 -0.74231285 -0.43702915 -0.53963655 -1.2296472 -0.45983583 -0.3451221
-0.5185902 0.020813748 0.38455594 -0.1982925 -1.024595 -0.5803355 -0.37028056 -0.2546135

lstm.weight_ih_l1 f4 [512, 128]
00000000: 1636 3c3f aed2 28bf bd4b 713f 2ec1 19bf
00000010: 38c2 533f eae0 353e d795 5e3f c5bd 233f
00000020: f44a 1abe 751c 2a3e b04d a7bf 30bd 2a3f
00000030: d168 29bf 52f7 dbbe 1fc8 6c3f 6924 303e
00000040: 1b32 b9be 326f b9be 6c77 74bf e899 74bf
00000050: e5e2 11bf 6818 6bbf cb11 b33e bc1d 8b3d
00000060: 9cdb ab3f 8844 a4bf 795f 093f f712 0abf
00000070: 1d6d 23bf f418 ff3d 79ab 343e efed 223f
00000080: 536d f5bd 29c5 d0be 80b3 3d3f d046 3a3e
00000090: 9fac aa3d 8e4b 993e 133e 333d 29a3 253f
000000a0: 7775 713e c70d 3e3f e1ff b33d cf0e b73e
000000b0: 8265 47bd 8bd3 94bf 5db3 323e 44ec 16bf
000000c0: e13d 19bf c3ae 05bf dbe4 fd3e 393f 983f
000000d0: 03db 8dbe 873b 33bf c450 8dbe 4c97 f5be
000000e0: 543a 613f 8681 6b3f 94f1 20c0 500f 983e
000000f0: a339 eebe bdb4 7a3e ec24 bebe 286f 1a3f
00000100: f389 19bd 8cf0 c13f bd6a 59be e1b7 12bf
00000110: 7e14 483e 18cf 65bd d48f 20be d5d9 df3e
00000120: e87c 8cbb abd1 4d3e 7862 e0be 4664 993d
00000130: 43f4 47bf eeb5 cf3e 3669 b33f baba 66be
00000140: bd01 b9be 9600 ecbc 7be5 4fbf ad95 57bd
00000150: 74ba 5a3f c4ed 57bf 976f 703d 4fe7 44bd
00000160: 621d da3d 296f 0bbf d6c7 b43e 22bd fc3e
00000170: ecb1 043f 93ba c53e 2947 8a3f 522d a73e
00000180: c0bc da3e bcf9 3b3d 4a04 263f 8a9d 453e
00000190: ae52 29bd 876c d2bd 64b6 903e c90a c4bf
000001a0: 90dc 89bf 2f58 05be e8f4 ee3e b6bb 0bbf
000001b0: 0b01 ed3e 6279 853f 046e 04bd a534 7c3f
000001c0: 8b2c 603f a8be 66bf 9984 1ebf 3777 d6be
000001d0: 8b9f 7abc ed18 af3d faab 55bf 37fd ca3e
000001e0: 7964 f7bf d1bc 933d 340c a7be f9a7 c4be
000001f0: c50c c63f 4a1c 22bf 2b19 b7bd 9a26 00bf
00000200: 92b2 ab3e af11 b83e f771 fa3d 0f2e dd3e
00000210: e4e4 8f3e 8c81 233f fcf2 01be 4af3 ee3e
00000220: e457 4b3d 6065 a53e 9aea 3dbf c1b4 3d3e
00000230: 5f17 6cbe c7d4 09be 2457 8bbf f72c d4bd
00000240: 9361 71be bf4d d03e 0c72 d8bd 6cbd 13bf
00000250: 97e8 c0be 5438 56bf f8fd c63e f645 373f
00000260: fbbf b23d 3d86 51bf 1e8d 0ebe a949 0f3e
00000270: d799 a7be 58c9 c3be ac17 bebf 38f3 7f3f
00000280: e2cf ab3d 5a25 083e 8d00 b3be 106a 6f3d
00000290: 2812 05be 2253 e13e f65b 9a3c 2cf2 8b3e
000002a0: fe2f 3f3d 611b 50be b5e4 06bf de0b 2bbe
000002b0: 4d54 273d 4a64 dbbe 6f3a 5f3d 4e27 893d
000002c0: 0350 b7be e3c0 53bd fe45 87be 7640 613f
000002d0: 9567 4dbe 2d3f 153f 5941 f2be 7cfa a9be
000002e0: e5fe 903d 8589 6e3e 8c42 c3bf 6c6d 0fbe
000002f0: 50c8 b73e e8e9 823c 3f69 3abf 93b8 1bbd
00000300: 5f4c 3b3d 9ec4 c23e bcef 86be b7b4 6cbf
00000310: d27b 85bc ea60 473e b1d7 f9be f6c8 2cbe
00000320: 9a34 edbd c91f 93be 5617 93be 159b 57bd
00000330: 1c3d babe ca1b acbe 5275 5bbc 0b2c 6b3d
00000340: dc36 30bf 59be dbbe 46de 6fbf affb f03d
00000350: 1f51 c23e b27e 27be c5ed 3e3f 4699 913f
00000360: d71e 08bf 34fd 89bf 67a1 913e 2f6a 4f3c
00000370: 9fab e9be b6ef d7be 6b85 583e 7f30 923e
00000380: a661 85bd d480 353f 51f2 593e 0615 2d3e
00000390: 5422 3bbe acb7 80bf dde3 8b3f 20fe 5e3f
000003a0: 93b7 aabe 1553 8abe cadc 603e 6fa8 d2be
000003b0: 41ed 403e 12b2 0d3f 59ce 4abf a738 c9bc
000003c0: 7763 b93e 74dc a7bd a8ae f6bd 6883 86be
000003d0: 09cb cc3e 2814 9f3e ff7f 00bd b274 3dbd
000003e0: b1c5 99bf 136e b73d 0433 353f fbd9 093d
000003f0: f5dc 613f d146 d83d 91ff a63e 33e5 1fbd
0.7352003 -0.6594647 0.9425619 -0.60060394 0.8271823 0.17761579 0.8694739 0.6396144
-0.15067655 0.16612418 -1.3070583 0.6669493 -0.6617556 -0.42962128 0.9249286 0.1720139
-0.3617104 -0.36217648 -0.95494723 -0.9554734 -0.5698684 -0.91834116 0.34974512 0.06792781
1.3426394 -1.2833414 0.53661305 -0.5393519 -0.6383837 0.12455931 0.17643537 0.6364431
-0.119837426 -0.4077542 0.7410202 0.18191075 0.08333706 0.29940456 0.04376037 0.6470209
0.23579966 0.7423977 0.087890394 0.35753486 -0.04868079 -1.1627058 0.17451234 -0.5895426
-0.59860045 -0.5221979 0.49588665 1.1894294 -0.27706155 -0.70012707 -0.27600682 -0.47966993
0.87979627 0.9199451 -2.5147448 0.29699183 -0.46528348 0.24483009 -0.37137544 0.6032586
-0.037485074 1.5151534 -0.21232124 -0.57311827 0.19539067 -0.056105703 -0.15679866 0.4372088
-0.004287351 0.20099513 -0.43825126 0.07489829 -0.7810709 0.4056849 1.4016483 -0.22532168
-0.3613414 -0.028808873 -0.81209534 -0.052632976 0.85440755 -0.84347177 0.05870017 -0.048072156
0.106501356 -0.5446649 0.35308713 0.49363047 0.5183399 0.38618907 1.0802966 0.32651764
0.4272213 0.045892462 0.64850295 0.19298378 -0.041338615 -0.10274606 0.28264153 -1.5315791
-1.0770435 -0.1302192 0.46671224 -0.545833 0.46289858 1.0427668 -0.03233148 0.9851783
0.8756797 -0.9013467 -0.6192108 -0.4188783 -0.015296827 0.08549676 -0.8346554 0.39646313
-1.9327537 0.07213748 -0.32626498 -0.38409403 1.5472647 -0.63324416 -0.08940347 -0.500589
0.33534676 0.35950992 0.12228768 0.43199202 0.28104317 0.6386955 -0.12690347 0.4666999
0.049644366 0.32303905 -0.741861 0.18525983 -0.2305579 -0.13460074 -1.0885968 -0.10360139
-0.23572378 0.40684316 -0.10568628 -0.5771091 -0.37677452 -0.836797 0.38865638 0.71591127
0.087280236 -0.81845456 -0.1392102 0.13992943 -0.32734558 -0.3823955 -1.4850974 0.999805
0.0838926 0.13295498 -0.34961358 0.05845076 -0.12995207 0.44008738 0.018842679 0.273332
0.04667663 -0.20322944 -0.5269273 -0.16703746 0.04085188 -0.42849952 0.054499086 0.0669695
-0.35803232 -0.051697623 -0.26420587 0.87988985 -0.20059045 0.58299524 -0.4731548 -0.33198917
0.07079867 0.23294647 -1.5254683 -0.14006585 0.35895014 0.015980676 -0.7281684 -0.03801782
0.04572713 0.38040632 -0.26354778 -0.9246325 -0.016294394 0.19470564 -0.48797372 -0.16873536
-0.115822986 -0.28735188 -0.2872874 -0.052638132 -0.36374748 -0.3361495 -0.013394671 0.05741505
-0.6883371 -0.4291866 -0.9369854 0.11766755 0.37952515 -0.16356924 0.7458156 1.13749
-0.5317206 -1.0780396 0.28443453 0.0126595935 -0.4563875 -0.42175072 0.21144645 0.28552625
-0.065127656 0.708997 0.21283843 0.16902551 -0.18274814 -1.0056052 1.0928913 0.87106514
-0.3334318 -0.27016512 0.21959224 -0.4114413 0.18840505 0.5534984 -0.7922111 -0.024563147
0.36208698 -0.08196345 -0.12045032 -0.2627213 0.39998654 0.31070065 -0.031372067 -0.046253867
-1.2013456 0.08956542 0.7078097 0.033655148 0.8822778 0.10560382 0.32616857 -0.03903694

lstm.weight_hh_l1 f4 [512, 128]
00000000: 72ce 163e cfd6 81be fc2a 2b3e 2801 2e3e
00000010: 0d26 633f 5911 97be b273 b33e a2c8 9d3c
00000020: b304 a0bf f51c 153e 558c 33bd 6010 cfbd
00000030: 1293 75bf 2494 4ebf e1dc 02bf 43c2 113e
00000040: 2761 77be 306a d23c 930d fc3d 42a3 4cbc
00000050: 5c4a 3e3f 588e f73c 322b 0e3e 0d9a 043d
00000060: c743 773f fa69 d5be 6694 973e 4e27 0cbe
00000070: edba 8fbe 5edb 1cbf c406 ca3e 0dfe 2f3f
00000080: ce04 84bf f2ec 5c3f 9dcc c43e 9179 7d3e
00000090: 5710 023f 19d8 c43e 5999 b43e 9f19 00bf
000000a0: fb91 0ebf 6b8e a83d c257 96be ee79 8b3f
000000b0: 8b6c 6a3e 2d62 213f f56e 8abe 8a50 793f
000000c0: 7629 4b3e 84a3 e83d 0b7b 89bd f4b9 38bf
000000d0: 2ff4 643f 7b68 223e c1ae c03e 22fa 20be
000000e0: ae10 c8bd 341f 0b3f 94ca aa3f 67e6 383f
000000f0: 08a8 5ebe 81cd a9bd 6255 05bf e1db 36bf
00000100: 2820 d2be 639f 953d f3ea 55bf ef72 aabf
00000110: fea1 28be 9d79 11bd 45bf a73c 5fab f5bd
00000120: 5606 a83e f4ef 1fbf 53c6 403e c9ac 0c3f
00000130: 8af0 2d3e 1f8a 1d3d 1314 1c3f f4e4 debe
00000140: 1bab 903f 15dc 8f3f 7aac 9a3e 6a2e 4e3f
00000150: b9cd 8d3e 84aa adbe 6bdc 243f 222d 5fbe
00000160: 2e0c bcba 9623 d43d 78b5 1e3f 267c 8f3e
00000170: 984a 01bf ad81 293f 044c 553e cb81 a53e
00000180: 3f2a 1e3e 4408 a83e 39ce 7d3f 18a1 a7bb
00000190: d347 d83c 3ca4 5a3f 27ca 293e b514 12bf
000001a0: c3bc 273e 264f 1b3f b734 96bd c508 783e
000001b0: a6af 3d3f 9fec 00bf dfbd a3bd ded0 cdbe
000001c0: 1071 243f 0149 8b3e 258b d9be ada0 b9be
000001d0: 2f02 46be b193 da3e 6424 70bd 2b99 dd3e
000001e0: 262d 913e db55 c43f 308c 49b9 a3c4 fb3e
000001f0: a10e 65bf 6f67 f8be dd2b 1e3f 7078 83be
00000200: e94d 8bbd ca54 26bf 588b 0abf ba46 c1bc
00000210: 7788 f9be 5df2 25bf 5a7f f3bd 048b b33d
00000220: 283d 7cbe b998 67bf 3fc8 75bd 1e12 573e
00000230: b3de ad3e 5889 f0bd 38fc eb3d f355 393d
00000240: c07f 9c3e b859 0dbe 9a15 00be b5bb 073f
00000250: 7fbf 11bf 7a23 be3e b0c3 60bd 3503 a73e
00000260: a931 843e bb30 63bf 6f8f 3fbf 3ad6 eb3e
00000270: 2f0c 47be 7416 38be e382 5dbe 4339 fabd
00000280: 9c99 033f a9bb 22bd 3358 093f 1cf3 583e
00000290: 63d9 58bf 4f4e 7bbd b391 dc3e e19f 113f
000002a0: a623 a93e 0841 c3bc 5e5e a5be 7dad 19be
000002b0: b959 1fbe 20cc 04bf 6f44 9b3e b93e 1ebf
000002c0: c68c 6e3e 5c00 c13e 9437 0fbd c5b1 a9bc
000002d0: 5602 533e a430 b8be 3ee8 563e be5d 03bf
000002e0: eba8 01bc 949f 39be 4614 27be 76ca 5a3f
000002f0: ca70 e33e 1a1a c5bd 11d1 023f 3a7a a43e
00000300: cc4a 15be 2e6c 85be 5ba5 9fbe bbdc 8c3d
00000310: 9cfa 993f 4c77 583f adf9 0fbf 91a8 a03e
00000320: 32d8 123e 65ee 3b3d ea18 39bf bb71 89bd
00000330: 2c27 9f3e f3dd 62be 0a30 123f 1e2c fd3e
00000340: 5232 d73e de6c 80be a8cd 57be 0fe7 943e
00000350: cfc7 983e fd64 18bf 6fe0 0ebe 4408 90be
00000360: f0a8 8f3e 3786 353e 514f 17bf 16be 3cbf
00000370: dcd4 6fbf 3346 053f 07dc ffbe 1fcd 543e
00000380: 8df8 c6bd d75c f0be 8db3 3dbd 706c 933e
00000390: eadc 9b3e 9261 8b3e fd0e e2be 015c f63d
000003a0: 696f ecbe 155a 6abd fab1 f23c 6612 143e
000003b0: 70f6 9e3e 172f 15be d61c 27be a65e 323e
000003c0: 9c3a 61be d3e9 d0be 1dff 543d 7fb3 b53e
000003d0: 2127 393f f11e 373f e284 5d3d f4e2 e93e
000003e0: 74b7 c5be e64f 8fbd 4f4d 13be 5b81 fe3d
000003f0: e0af fbbd fb99 8c3c 029f 813e 615b d2be
0.1472719 -0.25359198 0.16715616 0.16992629 0.88729936 -0.29505423 0.35049206 0.019260708
-1.2501434 0.14561827 -0.043835003 -0.10110545 -0.95927536 -0.80694795 -0.51118284 0.14234261
-0.24158154 0.0256854 0.123072766 -0.012490096 0.74332213 0.030219242 0.13883665 0.032373477
0.96587795 -0.41682416 0.29605407 -0.13686869 -0.280723 -0.6127223 0.39458287 0.68747026
-1.0313966 0.8629905 0.38437358 0.24753405 0.5080618 0.3844612 0.35273245 -0.50039095
-0.556915 0.08230289 -0.2936383 1.0896585 0.22892968 0.6304043 -0.27037778 0.9738852
0.19840035 0.11359313 -0.06712922 -0.7215874 0.89435095 0.15860169 0.37633327 -0.15720418
-0.097688064 0.5434449 1.3343072 0.72226566 -0.21743786 -0.0829115 -0.5208341 -0.7142926
-0.41040158 0.07305791 -0.8356163 -1.3316325 -0.16468045 -0.03551637 0.020476947 -0.11995577
0.32817334 -0.62475514 0.18825655 0.5495115 0.1698629 0.0384618 0.6096813 -0.43534052
1.1302217 1.1239039 0.30209714 0.8053957 0.27696016 -0.33919156 0.6439883 -0.2179456
-0.0014346892 0.1035835 0.6199565 0.28024405 -0.50504446 0.66213495 0.20829779 0.32325587
0.15445803 0.32818806 0.99142796 -0.0051156394 0.026401436 0.8540685 0.16581021 -0.57062846
0.163806 0.60667646 -0.07334273 0.24222095 0.74096143 -0.50361055 -0.079951994 -0.40198416
0.6423502 0.27204135 -0.4248897 -0.36255398 -0.1933677 0.42690805 -0.058628455 0.4328092
0.28354758 1.5338701 -0.00019221078 0.4917346 -0.89475447 -0.48516414 0.6178568 -0.25677824
-0.068019696 -0.6497313 -0.5411887 -0.023593295 -0.48736927 -0.6482294 -0.11889525 0.087667495
-0.24632704 -0.9046741 -0.060005423 0.21003005 0.3395897 -0.11744946 0.11522716 0.045247983
0.30566216 -0.13803756 -0.1250824 0.53020793 -0.56932825 0.3713644 -0.054874122 0.32619634
0.25819138 -0.8874623 -0.7482824 0.4606188 -0.19438241 -0.17977315 -0.2163196 -0.12217953
0.51406264 -0.039729748 0.53650206 0.21186489 -0.84706706 -0.061353978 0.4307991 0.5688458
0.3303501 -0.02383472 -0.3229856 -0.15007587 -0.1556157 -0.5187397 0.30325648 -0.6181446
0.23295888 0.37695587 -0.034965113 -0.02071465 0.2060636 -0.3597461 0.20987031 -0.51314914
-0.007913808 -0.1812728 -0.16316327 0.8546518 0.4442199 -0.09624119 0.5110026 0.321245
-0.14579314 -0.26059097 -0.31180844 0.068780385 1.2029605 0.8455703 -0.5624035 0.31378606
0.14340284 0.045881648 -0.7230364 -0.067111455 0.31084573 -0.2215498 0.5710455 0.4944772
0.4203058 -0.2508306 -0.21074545 0.29082534 0.29839942 -0.59529096 -0.13952802 -0.28131306
0.28058577 0.1772698 -0.591054 -0.7372755 -0.9368417 0.5206024 -0.49972555 0.20781372
-0.09715376 -0.4694583 -0.04631381 0.2879367 0.30441982 0.27222878 -0.4415206 0.12029267
-0.4617875 -0.057214815 0.029625881 0.14460143 0.31047392 -0.14568745 -0.16319594 0.17418918
-0.21995014 -0.40803394 0.052001107 0.35488507 0.7232533 0.7153159 0.054081805 0.45680964
-0.38616526 -0.06997661 -0.1438496 0.12427016 -0.12289405 0.017163267 0.25316626 -0.41085342

lstm.bias_ih_l1 f4 [512]
00000000: 9de8 abbf b331 32bf 393a a8bf 074b 8abf
00000010: 6679 8dbf 754d 32bf cca3 a8bf 35d8 e5be
00000020: 249d a8bf db05 88bf 1731 a2bf 4262 0dbf
00000030: 0602 96bf f5bf 2ebf e418 b0be 0122 c93e
00000040: ceb5 45bf e022 8dbf 2cc6 78bf cdaf 4cbf
00000050: f32d 15bc f5f5 01be 25f4 aebf 53db 52bf
00000060: 474d a0bf 9510 86bf 1aa0 fabe 703b 8dbf
00000070: 3e7b 83bf 80e5 a1bf 3cde 5ebf 5003 27bf
00000080: 2100 08c0 9d0d 14bf ad52 86bf b726 9dbf
00000090: ab9c 9cbf 145f d7bf 8e62 8cbf bb75 13bf
000000a0: 9228 a2bf ae90 9cbf da05 88bf f6bb 5fbf
000000b0: 7554 0ebf c06d b93e 745d ecbe 9ad5 f0bd
000000c0: 10e5 fbbe 9ad2 8bbe 302d 4ebf 561d acbe
000000d0: f589 a2bf 702c 253f cdba c0be 9300 f3be
000000e0: 4e01 39bf 2d81 57bf 0bea 0cbe 476a 27bf
000000f0: 8e18 b5bf 6cb8 94be 05f7 cebf 7886 f2be
00000100: 587c b9bf 9022 2b3f 58a7 b7be f818 183f
00000110: 124a 0bbf a7fd b43d 1899 12bf 7db7 b8be
00000120: 79fd 94bf 3e84 c2bf cde2 b0bf ae7d 64bf
00000130: ace7 cdbf 182f 9ebe 5b7d 64bf 1787 56bf
00000140: 0997 4bbf 2030 7fbf 5a62 60bf 112f a2bf
00000150: 46bb 10bf c17f 3dbc c3de ebbc 4265 b4bf
00000160: 6655 37bf fb54 c1be b6a0 80bf 856d e0be
00000170: 9343 97bf 663f 5dbf 2b31 2ebf fa8d 87bf
00000180: 9bc6 a2bf bc87 31bf 542b 50bf ec67 17bf
00000190: a53a b7be 5c17 5cbf 5d23 fdbf dd7d 22bf
000001a0: bf73 83bf b05c 0fbf 6217 f2bf ae8e e5bf
000001b0: 367a 9ebf f839 80bf de0b d8bd 425a 70bf
000001c0: 9f39 07bf 0f88 bfbe b833 cabf d3ab 31bf
000001d0: e361 a63d 43e9 07bf ac01 89bf 9262 c3bd
000001e0: c85b 75bf e6cb cfbf 7946 4dbf 4667 acbf
000001f0: 6bc6 e2be 96ce 38bf 39e5 25bf 27c6 4abf
00000200: 53ad eebe 23f1 a23e 952d 9e3f 7828 9d3d
00000210: f622 a73d b2eb 6bbf 0908 eabe 0605 693f
00000220: a936 39bf 933f 543e 76d8 84be 3be8 dd3d
00000230: 0907 43bf a635 ef3e 9515 12bf af5f 173f
00000240: faad 443f 03de 10bf dc43 753e a015 c4be
00000250: 4c0a 0e3f 9caa 423f f82a 2bbf 4cf4 24bf
00000260: a97f 163f 3105 90bf 8dad e93e 8253 8d3f
00000270: e90c 62be c891 5dbf 0001 2e3f 1dae 0d3e
00000280: ff77 053f c350 843f f453 543f a8c8 25bf
00000290: c824 973f f504 2abf 49ce 673f bdbe 04bd
000002a0: 2fcd 283f 7aad 123f ab9b 483f 3ddb 08bf
000002b0: 4d61 0b3f 8a5e 5dbe 6db4 9abe 243f 163e
000002c0: 364f acbe 1a11 403e b94a bb3e a87b 16bf
000002d0: f842 9dbe 94a2 673f 2da7 d03e ca87 1bbf
000002e0: fa3a 823e 0275 d0be 9541 f73c ef03 a13f
000002f0: 85eb ca3e ba50 2bbe 2186 53bf b160 df3e
00000300: 7639 82bf d541 ab3f 5374 be3c a844 1a3f
00000310: cc65 023f 54a8 0a3f 2dd3 93be 9621 813f
00000320: b318 02bf ef6b 8c3f a1c0 b63e 0924 98bf
00000330: 077e efbe 384e 5e3b 0045 4dbe 1f76 91be
00000340: c110 6abe 706d 043f f7c6 6d3c b23f 55bf
00000350: 3747 41bf 4c46 713e 4595 d3be 4929 53be
00000360: 551d fc3c e644 e3be c7b7 a0be 2cca 0abf
00000370: 3f73 fa3e 9e61 0abf 65b6 20bf 698f 263e
00000380: 5e9b c23d 706c d3bd d0be 19bd 32ea 1b3e
00000390: 268b 6cbf 41ce a13d 48f8 d2be 5148 ca3e
000003a0: 9652 b2bf ce4b da3e a844 b2be 71eb fbbe
000003b0: 7932 a6bd 25bb a0bd 7474 28be 5267 ccbe
000003c0: c9c7 3d3e 8ea6 3d3e c2f8 c3be d22e 59be
000003d0: f297 f2be 1875 43ba bdff d3be af03 4f3f
000003e0: 0f30 8abf 7b7b 44bf 8713 4cbe 119c 51bf
000003f0: 097f ca3e 8b7c 1a3e c4ff 16bf 492b 6bbf
-1.3430363 -0.69607085 -1.3142768 -1.0804147 -1.1052673 -0.6964944 -1.3174987 -0.44891515
-1.3172956 -1.0626787 -1.2671231 -0.55228055 -1.1719368 -0.68261653 -0.3439399 0.39283755
-0.77230537 -1.1026268 -0.97177386 -0.7995575 -0.009105193 -0.12691481 -1.3668257 -0.8236591
-1.2523583 -1.047381 -0.48950273 -1.1033764 -1.0271986 -1.2648163 -0.8705785 -0.6523943
-2.1250079 -0.5783327 -1.0493981 -1.227744 -1.2235311 -1.682589 -1.0967577 -0.5760152
-1.2668631 -1.2231653 -1.0626786 -0.8739618 -0.5559762 0.36216545 -0.4616505 -0.11759491
-0.49198198 -0.27309114 -0.805377 -0.33616132 -1.2698351 0.6452093 -0.37642518 -0.47461376
-0.72267616 -0.8418148 -0.13761155 -0.6539654 -1.4148118 -0.29046953 -1.6169134 -0.47368217
-1.4491072 0.66849613 -0.3586986 0.594131 -0.544099 0.08837443 -0.5726485 -0.3607749
-1.1639854 -1.5196607 -1.3819214 -0.8925427 -1.6086326 -0.30895305 -0.8925378 -0.8379988
-0.79527336 -0.9968281 -0.8765007 -1.2670614 -0.56535757 -0.011566103 -0.028792745 -1.4093401
-0.7161468 -0.37760147 -1.0049045 -0.43833557 -1.1817497 -0.86424863 -0.68043774 -1.0590203
-1.271686 -0.6934774 -0.81316113 -0.5914295 -0.3578693 -0.85973144 -1.9776417 -0.634733
-1.0269698 -0.56000805 -1.8913386 -1.7934167 -1.2381046 -1.0017691 -0.105491385 -0.9388772
-0.528223 -0.37408492 -1.5797033 -0.6940281 0.08124139 -0.53090304 -1.0703635 -0.09540285
-0.9584317 -1.62341 -0.8018566 -1.3469017 -0.44292006 -0.72190225 -0.6480289 -0.79208606
-0.4661661 0.31824598 1.235766 0.076737344 0.08160965 -0.9215652 -0.45709255 0.9102329
-0.7234903 0.20727377 -0.25946397 0.1083531 -0.7618261 0.46720618 -0.5706418 0.59130377
0.7682797 -0.56588763 0.23951668 -0.3829775 0.5548446 0.7604158 -0.6686244 -0.6443527
0.58788544 -1.1251584 0.4564022 1.104111 -0.22075237 -0.8655057 0.67970276 0.1383595
0.52136225 1.0337147 0.829406 -0.647593 1.18081 -0.66413814 0.9054914 -0.032408465
0.65938085 0.57295954 0.7836253 -0.5345953 0.54445344 -0.21618095 -0.3021578 0.14672524
-0.33654183 0.18756524 0.36580446 -0.58782434 -0.30715156 0.9048245 0.40752545 -0.6075407
0.2543562 -0.4071427 0.03018264 1.2579325 0.39632812 -0.16730013 -0.8262654 0.43628457
-1.0173786 1.3379465 0.023248827 0.6026101 0.5093658 0.541631 -0.28872052 1.0088375
-0.5081894 1.0970439 0.3569384 -1.1885997 -0.4677584 0.0033921134 -0.20045853 -0.28410432
-0.22857954 0.5172949 0.014512769 -0.83300316 -0.7549929 0.23561972 -0.4132482 -0.20621218
0.030775705 -0.44388503 -0.3139021 -0.5421474 0.4891605 -0.540552 -0.6277831 0.16265644
0.0950229 -0.10323417 -0.03753549 0.15226057 -0.92399824 0.07900668 -0.4120505 0.39508298
-1.3931453 0.4263596 -0.34818006 -0.49203065 -0.08115096 -0.07848195 -0.16450673 -0.39922577
0.18533243 0.18520567 -0.38275725 -0.21209267 -0.4738155 -0.0007456108 -0.4140605 0.80864996
-1.0795916 -0.76750916 -0.19929324 -0.81878763 0.39550045 0.15086572 -0.5898402 -0.9186292

lstm.bias_hh_l1 f4 [512]
00000000: 8421 a7bf 3eab 36bf 885d acbf 9cb0 94bf
00000010: f8d1 80bf 92be 49bf 1490 b6bf 2cac d6be
00000020: 4594 a2bf 8228 87bf 2055 99bf e1ae 0abf
00000030: a3cc 91bf e85e 30bf 188b 60be f485 b83e
00000040: d7f1 39bf 3d3b 8fbf a7f6 73bf 984f 2dbf
00000050: 7dc2 813d e2b0 8bbe 1bad a5bf 72e4 5ebf
00000060: 4826 adbf a1ef 87bf ad32 cabe 3602 8cbf
00000070: 49ae 80bf d1ff a9bf 8284 7abf 14db 2abf
00000080: 8239 05c0 0bca 01bf 93a7 93bf a0e3 9abf
00000090: 0d3e a0bf 9bc6 ccbf bdaf 81bf 9126 05bf
000000a0: 9e50 95bf 120b abbf d853 88bf 3be3 49bf
000000b0: eb77 1dbf 748e 973e 6b4c d5be d907 8fbd
000000c0: 59a9 b9be 0567 9ebe 5b8a 64bf 597f e5be
000000d0: 9f88 90bf 2076 f33e da85 01bf c7c5 c3be
000000e0: 56e8 39bf 1f3a 81bf 707f 18be 3a2f 27bf
000000f0: 41c6 c4bf 27ad 95be 3a8d d6bf 0aa4 d4be
00000100: df2f bebf 2159 273f 067e b2be 4699 1c3f
00000110: 3c6e 07bf 454c 7b3d 25dd dfbe 175a bebe
00000120: 32a4 93bf 5303 c2bf 5d7f b9bf c0eb 74bf
00000130: 8fd8 d1bf da83 90be 2cca 81bf 3598 52bf
00000140: 7943 4ebf 1aba 80bf 1121 5ebf a110 a7bf
00000150: a18b 0dbf 75ca 77bd 7ac6 b8bd 2101 aabf
00000160: 1c07 20bf 5456 dcbe 0c6d 76bf 675c eabe
00000170: b3e5 93bf 0f1c 58bf 94d9 0ebf 4c61 86bf
00000180: 2f9e 9abf b9fb 49bf 8e48 4abf 14d8 2bbf
00000190: 2efa d0be 3645 62bf 6f7f ffbf 2557 2ebf
000001a0: d560 7cbf 2d24 16bf 728e 01c0 d470 e3bf
000001b0: 5c2a 92bf 7a4f 93bf ba10 0cbe 2af7 6abf
000001c0: bbb7 18bf 3461 adbe 56c6 d5bf 014d 14bf
000001d0: b1bf 1c3e c82d 28bf e827 94bf a08c 34be
000001e0: d04b 73bf 4bef cebf eee5 62bf a512 b3bf
000001f0: 4557 fcbe c56c 1fbf 100f 38bf c90c 1ebf
00000200: bb09 f0be 0010 a83e 890d 963f ec76 ed3d
00000210: bd3b 6fbc d65c 4dbf 6a2a fdbe 4c3b 693f
00000220: 8c93 4bbf bf76 623e 37fb b5be 47b7 2d3e
00000230: 9103 37bf 5aa6 f93e bdfe 0fbf 405a 1d3f
00000240: d9e9 4b3f 918c 11bf bcba dd3d 425b adbe
00000250: 7956 e73e f91b 4f3f 4a42 08bf 7769 24bf
00000260: be14 0f3f d056 88bf 2538 e33e c48b 8f3f
00000270: 2477 6dbe 7135 5fbf 33cd 523f 534e d53d
00000280: aec8 f63e 9572 833f 757c 453f cc9e 1ebf
00000290: cf03 883f d946 22bf bc3d 4a3f a910 0d3e
000002a0: f7fa 3a3f 99dd 1e3f c5dd 523f 73be 01bf
000002b0: 2a1e 253f b322 11be 8fc9 92be c188 3e3e
000002c0: a04d ccbe 4964 6e3e d79f c63e 83d3 10bf
000002d0: 6b56 d0be 0a24 633f 8629 c43e 3753 f0be
000002e0: 1f6d 623e 05a3 99be b06c 4b3d 1072 a63f
000002f0: f6ff c33e 6320 89be b22f 5abf 9cd6 ef3e
00000300: c42e 77bf afef a83f 904a 46bd 893c 083f
00000310: 60f0 f33e a1f5 d93e a166 75be 3c27 933f
00000320: 28b4 11bf 5ad2 9c3f 6316 a33e b156 a2bf
00000330: dc06 0bbf d1ca bd3d 5236 b6bd 91b4 a4be
00000340: 3fe3 a5be d6c5 043f cfba 603d 5e8f 68bf
00000350: accb 24bf d961 293e 6561 9ebe d841 30be
00000360: bdac 8abd 3beb bbbe ef64 92be df72 0ebf
00000370: 4baa 003f e102 0abf ad95 01bf 51bc 893e
00000380: 90c7 44bd 405a 26bd 5dec 5fbd f111 22bc
00000390: 263e 52bf 8d10 623d 9fb9 b6be a804 d33e
000003a0: 0f08 b1bf 6af2 d83e a685 bcbe 38c9 05bf
000003b0: 5fc8 793c 0b2f 14be 18a8 53be bcee 87be
000003c0: 6246 4d3e 8bce c43c a7a3 8ebe e53c 1dbe
000003d0: 030f 24bf 6332 123e 1c0b bbbe 402d 443f
000003e0: 9f89 9abf 62a2 6fbf 9944 5cbe 0f09 6dbf
000003f0: 51d4 a33e 7452 623e 3ea5 27bf d542 79bf
-1.3057103 -0.71355045 -1.3466043 -1.1616397 -1.0064077 -0.7880641 -1.4262719 -0.41928232
-1.2701498 -1.0559237 -1.1979103 -0.54173094 -1.1390575 -0.68894815 -0.2192806 0.36039698
-0.72634643 -1.1189953 -0.95298237 -0.67699575 0.06335924 -0.27283388 -1.2943453 -0.8706733
-1.3527308 -1.0620004 -0.39491788 -1.0938175 -1.0053188 -1.3281194 -0.9785844 -0.66740537
-2.081635 -0.5069892 -1.1535515 -1.2100716 -1.2518936 -1.599811 -1.0131756 -0.5201197
-1.1665227 -1.3362753 -1.0650587 -0.7886235 -0.61511105 0.2960087 -0.41659865 -0.06983919
-0.36262015 -0.30937973 -0.89273614 -0.4482372 -1.1291693 0.4755106 -0.50594866 -0.3823683
-0.7262014 -1.0095862 -0.14892364 -0.65306437 -1.5373002 -0.29233667 -1.6761849 -0.41531402
-1.4858359 0.65370375 -0.34861773 0.61171377 -0.5290258 0.061352033 -0.43723407 -0.37178108
-1.1534483 -1.5157264 -1.4491993 -0.95672226 -1.6394213 -0.28225595 -1.0139823 -0.822635
-0.80571705 -1.0056794 -0.86769205 -1.305195 -0.5529118 -0.060495812 -0.090222314 -1.3281595
-0.6251085 -0.43034613 -0.9626014 -0.45773622 -1.1554474 -0.84417814 -0.5580075 -1.0498443
-1.2079524 -0.78899723 -0.7901696 -0.67126584 -0.40815872 -0.8838686 -1.9960765 -0.6810172
-0.98585254 -0.5864895 -2.0243192 -1.7768807 -1.1419177 -1.1508629 -0.13678256 -0.9178339
-0.5965535 -0.33863223 -1.6701152 -0.5793 0.153075 -0.65694857 -1.1574678 -0.17631769
-0.95037556 -1.6166776 -0.88632095 -1.3990065 -0.4928533 -0.62275344 -0.71897984 -0.6173826
-0.46882424 0.32824707 1.1722881 0.11594948 -0.014601645 -0.8021978 -0.49446422 0.91106105
-0.79522014 0.2211561 -0.35543224 0.16964446 -0.71489817 0.4875973 -0.56248075 0.61465836
0.796537 -0.5685511 0.108266324 -0.33858687 0.4518316 0.8090206 -0.5322615 -0.64223427
0.55891025 -1.0651493 0.44378772 1.1214528 -0.2318998 -0.8719092 0.8234436 0.1041533
0.4819998 1.0269343 0.7714303 -0.61961055 1.0626162 -0.63389355 0.7900045 0.13775887
0.7303919 0.6205688 0.82369643 -0.5068123 0.6449915 -0.14173393 -0.28669402 0.18606855
-0.39902973 0.23280443 0.38793823 -0.5657274 -0.40690932 0.88726866 0.3831293 -0.46938488
0.22111939 -0.30007187 0.0496642 1.3003559 0.3828122 -0.26782522 -0.8522903 0.4684342
-0.96555734 1.3198146 -0.048410952 0.5321737 0.4764433 0.42570212 -0.23964931 1.1496348
-0.5691552 1.2251694 0.31853017 -1.2682706 -0.5430734 0.092672 -0.088970795 -0.3216901
-0.32399938 0.51864374 0.054865655 -0.9084376 -0.6437328 0.16541232 -0.3093368 -0.17212617
-0.067712285 -0.36702904 -0.2859263 -0.5564403 0.50259846 -0.5391064 -0.5061901 0.26901487
-0.04804188 -0.040613413 -0.054668773 -0.009891973 -0.8212608 0.055191565 -0.35688493 0.4121449
-1.3830584 0.42372447 -0.36820716 -0.5226016 0.015245526 -0.1447107 -0.20669591 -0.26549327
0.2004638 0.024024269 -0.27859232 -0.1535526 -0.64085406 0.14277034 -0.36531913 0.76631546
-1.2073249 -0.9360715 -0.21510543 -0.9259195 0.31997922 0.22101766 -0.65486515 -0.973676
