final project/輔助/act_net_1000.pth (torch_old, 1700 bytes, 4 tensors)

l1.weight f4 [32, 4]
0	0xbe922009	-0.28540066
1	0x3dc52f1f	0.09628128
2	0x3e57c10e	0.21069738
3	0xbd7290e1	-0.0592202
4	0x3ee25095	0.44202104
5	0xbeed7e50	-0.4638543
6	0xc019060d	-2.3909943
7	0xbf01ecdc	-0.50752044
8	0x3f710814	0.9415295
9	0xbda24be1	-0.07924629
10	0xbfa6577d	-1.2995449
11	0xbe0c5383	-0.13703732
12	0xbeaab427	-0.3334057
13	0xbd482d05	-0.04887106
14	0xbf821bcb	-1.0164732
15	0x3dcfe700	0.10151482
16	0x3e992012	0.2990728
17	0x3e99af0a	0.30016357
18	0x4039ae46	2.9012618
19	0x3e7cbce6	0.24681434
20	0x3f188ccc	0.5958984
21	0xbe82abe9	-0.25521782
22	0xbfc75ef3	-1.5575851
23	0xbd9f07b5	-0.07765142
24	0xbe081aae	-0.13291427
25	0x3ddeec0b	0.108848654
26	0xbee2b305	-0.44277206
27	0x3e541c42	0.20713905
28	0xbd927938	-0.07152027
29	0xbe83b9e3	-0.25727758
30	0xc025adf6	-2.5887427
31	0xbebc4ae9	-0.36775902
32	0xbf8dd564	-1.1080747
33	0x3edb4942	0.4282933
34	0x3fe65d15	1.7997156
35	0x3f369733	0.7132446
36	0xbeaa17d8	-0.33221316
37	0x3e2932b8	0.16523254
38	0x3eaf1919	0.34198835
39	0x3e192b6e	0.14957973
40	0xbe5ebf9d	-0.21752782
41	0x3f2c2348	0.67241335
42	0x3e8075a9	0.25089768
43	0xbdd00757	-0.1015765
44	0x3d795bc8	0.060878545
45	0xbf0141c2	-0.50490963
46	0xbf323a75	-0.6962045
47	0xbe81c5a8	-0.25346112
48	0x3eadea07	0.3396761
49	0xbde9a460	-0.11408305
50	0x3dd3cdef	0.10342013
51	0x3c9807e8	0.018558457
52	0x3f0fa05a	0.5610405
53	0xbd700f9e	-0.058608644
54	0xc052a532	-3.2913327
55	0xbe6a78ba	-0.22897616
56	0x3da13cdc	0.07872936
57	0xbede1583	-0.43375787
58	0x3e9f5518	0.3111961
59	0xbdc6b81a	-0.09703083
60	0x3de00b44	0.10939649
61	0x3e9f1a98	0.31074977
62	0x403ed957	2.9820154
63	0x3ea449e4	0.32087624
64	0xbee9e2f0	-0.45680952
65	0x3ebd2e45	0.36949363
66	0x3e3521dc	0.17688698
67	0xbd0fb2d8	-0.035082668
68	0x3eefde06	0.46849078
69	0xbf05dcf7	-0.5229029
70	0xc00a8c18	-2.1648006
71	0xbe9b96d2	-0.30388504
72	0xbf6f3972	-0.9344703
73	0x3ea53d66	0.32273406
74	0x3fc6f555	1.5543619
75	0x3f3393ca	0.70147383
76	0x3e9a60e3	0.30152044
77	0xbe17f4a0	-0.14839411
78	0xc0507952	-3.2574048
79	0xbee38765	-0.44439235
80	0xbd6092a9	-0.054827366
81	0xbd9673fa	-0.073463395
82	0x3f352f3a	0.70775187
83	0xbe9fc990	-0.31208467
84	0xbe85c44e	-0.2612633
85	0x3e05945a	0.13044873
86	0xbec514ac	-0.38492334
87	0x3e10a7d6	0.14126524
88	0xbeea6750	-0.45781946
89	0xbe55eec3	-0.20891862
90	0x3fd67e1d	1.6757237
91	0x3ea1ef41	0.3162785
92	0xbed43f8e	-0.41454738
93	0x3ccc415f	0.024933515
94	0x3f2be83d	0.6715124
95	0xbe35be65	-0.17748411
96	0xbe3ce108	-0.18445218
97	0xbd6db3e5	-0.05803289
98	0x3f07ee0a	0.53097594
99	0x3cc784f6	0.024355393
100	0xbe0ce1c7	-0.13758002
101	0x3df5dda7	0.120051675
102	0xbed061e2	-0.4069968
103	0x3e119b03	0.14219289
104	0x3e5db970	0.2165277
105	0x3dd4964a	0.10380228
106	0x3e38939e	0.18025061
107	0xbdf1bbec	-0.118034214
108	0x3eff47db	0.4985951
109	0x3e84898e	0.25886196
110	0xbd26452d	-0.040593315
111	0x3d81dc5b	0.063408576
112	0xbf79313a	-0.9734074
113	0x3eb5499f	0.3540773
114	0x400928ff	2.1431272
115	0x3f10a2d0	0.5649843
116	0x3d75f131	0.06004447
117	0xbeb46e1c	-0.35240257
118	0xbe8d125a	-0.27553064
119	0xbd98fdb2	-0.074702635
120	0x3f1fb0ff	0.6237945
121	0xbe88e748	-0.26738954
122	0xbfd149e3	-1.6350673
123	0xbe86e053	-0.2634302
124	0xbe520179	-0.20508374
125	0xbdc5cd89	-0.09658343
126	0xbeea6fbd	-0.45788375
127	0xbe26f806	-0.16305551

l1.bias f4 [32]
0	0x3f1f9a12	0.6234447
1	0xbecb966a	-0.39763194
2	0xbfee0621	-1.859562
3	0x3f3dea46	0.741856
4	0xbfa9b56b	-1.3258489
5	0x3ede632b	0.43435034
6	0x3f2525fe	0.64511096
7	0x3f03346b	0.5125186
8	0xbf0c0ea9	-0.5470987
9	0x3f6e484a	0.93079054
10	0xbe861d6b	-0.2619432
11	0x3f509649	0.81479317
12	0x3f1758ee	0.5912007
13	0xbf6ec73c	-0.9327276
14	0xbf16da33	-0.58926696
15	0xbf55d6cf	-0.83530897
16	0x3f5e630a	0.8686987
17	0x3f147ad3	0.57999915
18	0xbf4b3603	-0.7937929
19	0xbf3d3bc7	-0.7391934
20	0x3ec9cf22	0.39415842
21	0x3f51786e	0.81824386
22	0xbee4a3a0	-0.44656086
23	0x3f380a46	0.71890676
24	0x3f791fa8	0.9731393
25	0x3f869aa7	1.0515946
26	0x3f22e8c1	0.63636404
27	0x3f7cbf02	0.98728955
28	0xbf4554d1	-0.77082545
29	0x3ef30227	0.4746258
30	0xbf41b23c	-0.7566259
31	0x3f40f6ff	0.75376886

l2.weight f4 [2, 32]
0	0x3f0fdd2e	0.5619687
1	0xc0114262	-2.2696767
2	0xc08bf907	-4.374149
3	0xbe992a3b	-0.29915032
4	0xc0b17d82	-5.546571
5	0x3eb39848	0.3507712
6	0x3f001d40	0.5004463
7	0xbf223b1d	-0.6337145
8	0xbfebc717	-1.8420132
9	0x3edb189a	0.42792207
10	0xbd2bf4ee	-0.04198163
11	0x3f04e845	0.51916915
12	0x3ee1eb7b	0.4412497
13	0xbfb5bfc5	-1.4199148
14	0x3e744fe9	0.23858608
15	0xc074bb0d	-3.8239167
16	0x3edab963	0.42719564
17	0x3ecd0c7f	0.40048596
18	0xbfe098fa	-1.7546685
19	0xbf99d33b	-1.2017587
20	0x3ddb4843	0.10707142
21	0x3f15c073	0.5849678
22	0xbf24282e	-0.6412381
23	0x3e178940	0.1479845
24	0x3e67300e	0.22576925
25	0x3ef85b66	0.4850723
26	0x3ec4e44a	0.3845542
27	0x3ecc311e	0.39881223
28	0xc00b0b3c	-2.1725607
29	0x3e95cf9c	0.29259956
30	0xbf7a92fe	-0.9788054
31	0x3f318dca	0.6935698
32	0x3ebc6e61	0.36802962
33	0xc05ec37d	-3.4806817
34	0xc0baa24c	-5.8323116
35	0xbf1f4ced	-0.62226754
36	0xc0b2e2e4	-5.5901966
37	0x3e60ff65	0.21972425
38	0x3f2c667a	0.67343867
39	0xbecde6da	-0.40215188
40	0xbd6b8b57	-0.05750593
41	0x3f0ee0e9	0.55811936
42	0xbc2f5c65	-0.010703181
43	0x3ec8d624	0.39225876
44	0x3f139c1e	0.5766009
45	0xc010f1ba	-2.2647538
46	0xbe42baae	-0.19016525
47	0xc02b7ca2	-2.679482
48	0x3eedde1a	0.46458513
49	0x3ec861db	0.39137158
50	0xbfea978a	-1.8327496
51	0xbfc6c890	-1.5529957
52	0x3edddc41	0.43332103
53	0x3f27b6db	0.6551339
54	0x3ce175fb	0.027522078
55	0xbeae1758	-0.34002185
56	0x3f28839d	0.65825826
57	0x3ecaba2f	0.39595172
58	0x3e89221c	0.26783836
59	0x3e438168	0.19092333
60	0xbfdd774e	-1.7302034
61	0x3e3743db	0.17896979
62	0xc00f0021	-2.2343829
63	0x3f048f11	0.517808

l2.bias f4 [2]
0	0x3e6cd9b1	0.23129918
1	0x3f1110cd	0.5666626
