final project/輔助/act_net2000.pth (torch_old, 1664 bytes, 4 tensors)

l1.weight f4 [32, 4]
-0.2713522 0.088860646 0.18562987 -0.07284184 0.43325216 -0.43946782 -2.4198356 -0.51554155
0.9401404 -0.08063537 -1.3009337 -0.13565004 -0.3468454 -0.07258642 -0.99053514 0.094915815
0.31131178 0.31244197 2.9137034 0.25371888 0.5592929 -0.24644752 -1.5448145 -0.07613297
-0.12363659 0.12098317 -0.46988562 0.20693235 -0.039279345 -0.21350819 -2.680393 -0.377483
-0.91856503 0.5732071 1.7725686 0.6874682 -0.3227679 0.17637725 0.31480166 0.14863446
0.121691495 0.68596554 0.19471054 -0.08161297 0.07531045 -0.5091356 -0.7218835 -0.26494598
0.35056424 -0.10274974 0.076345444 0.01773363 0.5951779 -0.015279551 -3.4393559 -0.3054953
0.07872936 -0.43375787 0.3111961 -0.09703083 0.040046003 0.2176065 3.0643842 0.41819704
-0.44741675 0.37532035 0.14992328 -0.03924316 0.28823265 -0.55990255 -2.1061094 -0.3302686
-0.9630521 0.43412304 1.6541797 0.72326046 0.3493295 -0.1555281 -3.3248703 -0.43868715
-0.058178023 -0.05358391 0.6809282 -0.29430947 -0.2518412 0.13724367 -0.41185632 0.13766512
-0.39662763 -0.019386161 1.7689203 0.26798442 -0.35573527 -0.010688617 0.6868583 -0.2064355
-0.18739103 -0.031075142 0.50458014 0.03434334 -0.12749158 0.11782373 -0.43303534 0.13273536
0.23018755 0.09786126 0.15496567 -0.130153 0.518371 0.24660295 -0.06383531 0.04603494
-0.89669293 0.4014358 2.1906896 0.61482877 0.10937944 -0.3906185 -0.32010794 -0.06436207
0.59436285 -0.297234 -1.629288 -0.23297516 -0.19228277 -0.10108029 -0.48352 -0.17440559
00000000: adee 8abe 92fc b53d c215 3e3e 1a2e 95bd
00000010: 3ad3 dd3e ed01 e1be 96de 1ac0 88fa 03bf
00000020: 0bad 703f 2824 a5bd ff84 a6bf d8e7 0abe
00000030: b895 b1be 30a8 94bd b693 7dbf 3963 c23d
00000040: 4264 9f3e 65f8 9f3e 1e7a 3a40 71e7 813e
00000050: d22d 0f3f bd5c 7cbe 7bbc c5bf 9aeb 9bbd
00000060: 2e35 fdbd 06c6 f73d d994 f0be 13e6 533e
00000070: 61e3 20bd e4a1 5abe 8f8b 2bc0 7445 c1be
00000080: 1427 6bbf b3bd 123f 87e3 e23f eafd 2f3f
00000090: d641 a5be 3d9c 343e af2d a13e a233 183e
000000a0: 6439 f93d 709b 2f3f 3362 473e b324 a7bd
000000b0: 5d3c 9a3d b656 02bf 5bcd 38bf 00a7 87be
000000c0: 287d b33e 756e d2bd 005b 9c3d 1e46 913c
000000d0: 945d 183f 1557 7abc 681e 5cc0 e169 9cbe
000000e0: dc3c a13d 8315 debe 1855 9f3e 1ab8 c6bd
000000f0: 4707 243d 3dd4 5e3e df1e 4440 ec1d d63e
00000100: cf13 e5be fd29 c03e 7d85 193e 70bd 20bd
00000110: 3b93 933e c655 0fbf 7fca 06c0 f718 a9be
00000120: 958a 76bf 6045 de3e 29bc d33f 9927 393f
00000130: 51db b23e c242 1fbe adca 54c0 9a9b e0be
00000140: 144c 6ebd cd7a 5bbd 4f51 2e3f bbaf 96be
00000150: 54f1 80be 9b89 0c3e d5de d2be 16f8 0c3e
00000160: c712 cbbe bacf 9ebc fb6b e23f 4135 893e
00000170: ef22 b6be 4f1f 2fbc f2d5 2f3f d463 53be
00000180: 6fe3 3fbe 4c91 febc 2a2c 013f 9aab 0c3d
00000190: 278d 02be 914d f13d cfb6 ddbe c7eb 073e
000001a0: 49b6 6b3e 7c6b c83d 52af 1e3e d446 05be
000001b0: f6b3 043f 7c85 7c3e 16bc 82bd 228f 3c3d
000001c0: ab8d 65bf fe88 cd3e 4234 0c40 6b65 1d3f
000001d0: 5402 e03d 26ff c7be 30e5 a3be 43d0 83bd
000001e0: 2a28 183f 0e2f 98be 828c d0bf 0a91 6ebe
000001f0: c6e5 44be 2f03 cfbd ef8f f7be 6197 32be

l1.bias f4 [32]
0.6246092 -0.44247478 -1.8609511 0.73842007 -1.3132927 0.4644456 0.6468344 0.5181869
-0.6388059 0.93242985 -0.2956677 0.8160606 0.5928648 -0.8407639 -0.58926696 -0.7966718
0.8701758 0.59771234 -0.7659025 -0.7595702 0.39859256 0.81985426 -0.38487157 0.7182787
0.97511584 1.05287 0.63743144 0.9881166 -0.7802831 0.47542906 -0.785994 0.7551092
00000000: 63e6 1f3f 0e8c e2be a533 eebf 1909 3d3f
00000010: fa19 a8bf d0cb ed3e f096 253f e6a7 043f
00000020: c988 23bf b9b3 6e3f c261 97be 59e9 503f
00000030: fdc5 173f 4e3c 57bf 33da 16bf aff2 4bbf
00000040: d7c3 5e3f ad03 193f 3012 44bf 3173 42bf
00000050: 5314 cc3e f8e1 513f e30d c5be 1de1 373f
00000060: 31a1 793f 72c4 863f b52e 233f 36f5 7c3f
00000070: a2c0 47bf 706b f33e e736 49bf d64e 413f

l2.weight f4 [2, 32]
0.55886865 -2.3655133 -4.3727674 -0.3024183 -5.565521 0.37222216 0.493855 -0.6570593
-1.9184767 0.42066115 0.014506329 0.5361713 0.4483452 -1.6197004 0.23858608 -4.0782304
0.42212078 0.3678768 -1.9207622 -1.3753376 0.11970421 0.5796689 -0.4823195 0.1459177
0.22334187 0.48231697 0.39019492 0.4014058 -2.3223562 0.32434845 -0.9529031 0.6991974
0.3705456 -3.4416344 -5.8323116 -0.609554 -5.586414 0.22023723 0.68464404 -0.48267356
-0.13619153 0.56386614 -0.09854682 0.38177928 0.57275563 -2.545756 -0.19016525 -2.6619298
0.4724806 0.44920522 -2.0034034 -1.4115175 0.40882257 0.6644607 -0.12166276 -0.3428844
0.65859383 0.40318012 0.26499438 0.19425416 -1.9179593 0.16918834 -2.2343829 0.517994
00000000: 0412 0f3f 9264 17c0 b6ed 8bc0 92d6 9abe
00000010: bf18 b2c0 e793 be3e 90da fc3e 0a35 28bf
00000020: a590 f5bf e660 d73e f4ab 6d3c 8642 093f
00000030: 818d e53e 5852 cfbf e94f 743e dd80 82c0
00000040: 3720 d83e 595a bc3e 89db f5bf 100b b0bf
00000050: 7b27 f53d 2e65 143f 95f2 f6be 736b 153e
00000060: bbb3 643e 40f2 f63e a1c7 c73e 1085 cd3e
00000070: 7ca1 14c0 0011 a63e 75f1 73bf 9afe 323f
00000080: 27b8 bd3e bd43 5cc0 4ca2 bac0 bb0b 1cbf
00000090: e7c3 b2c0 de85 613e d544 2f3f fd20 f7be
000000a0: cb75 0bbe 8859 103f ead2 c9bd 9378 c33e
000000b0: 1da0 123f abed 22c0 aeba 42be 0f5d 2ac0
000000c0: fae8 f13e 3afe e53e c337 00c0 9bac b4bf
000000d0: 3151 d13e 191a 2a3f 532a f9bd 8b8e afbe
000000e0: 9b99 283f a06d ce3e 58ad 873e 90ea 463e
000000f0: b17f f5bf b53f 2d3e 2100 0fc0 419b 043f

l2.bias f4 [2]
0.2323362 0.56884366
00000000: 8ae9 6d3e bd9f 113f
